backend/ml_models/behavioral_pattern_model.pth (torch, 3975 bytes, 4 tensors)

fc1.weight f4 [20, 10]
000000 65 00 8a 3e 05 ba 63 3e dc 9c 86 be b0 89 19 3c
       0.26953426 0.2223893 -0.2629155 0.009371206
000010 b6 1f 90 be 02 c1 91 3e 8f a8 39 bd 34 f9 ca bd
       -0.28149194 0.28467566 -0.045326766 -0.09910813
000020 1c 03 05 3e 40 bf 48 3e 87 02 79 be 4f da 6d be
       0.12989467 0.19604206 -0.2431737 -0.2322781
000030 d2 9b 9f 3e 5d c9 52 be 9f f7 ea bd a1 af 95 bd
       0.3117357 -0.20584626 -0.11473011 -0.07308889
000040 d2 e2 0d 3e 87 8d f4 bd 30 b2 96 be 18 85 6b bc
       0.13856056 -0.11941057 -0.2943282 -0.014374994
000050 43 bf 3b 3d eb ae 95 3e d8 c1 74 3c 28 f8 02 be
       0.0458367 0.29235014 0.014938794 -0.12789977
000060 78 21 64 be 84 e1 08 3c 7b f8 0b be cf 79 91 3d
       -0.22278392 0.008354548 -0.13669007 0.07103311
000070 d0 d1 8d be 3c 9c 98 3e a5 d9 11 3b fe 04 8a be
       -0.27699137 0.29806697 0.002225497 -0.26956934
000080 af 31 2d 3e c1 de 7b 3e 66 e3 21 3e 6a 1e 4f be
       0.16913484 0.24596693 0.15809402 -0.20226446
000090 16 53 34 3e 91 72 96 bd f3 0f 66 be e5 38 30 3d
       0.1760982 -0.073460706 -0.22467022 0.04302301
0000a0 93 80 66 3d e8 3f e9 3d c1 8d b5 3d 3a 51 69 3e
       0.05627496 0.11389142 0.08864928 0.22784892
0000b0 ee 29 29 3e 3c e8 2d 3e f6 f1 1f bd ec eb c4 3d
       0.16519901 0.16983122 -0.03904911 0.09615311
0000c0 ed 11 91 bd 67 2a 96 be 0a b2 03 3e 00 8f 35 3d
       -0.07083497 -0.29329225 0.12860885 0.04432583
0000d0 e7 38 96 be bd 80 20 bb 9b 2b 62 3e 39 0c 46 3e
       -0.29340288 -0.0024490796 0.22086947 0.193406
0000e0 35 9a a1 be db fb 07 be 4e 90 18 be f6 0a a1 3e
       -0.31562963 -0.13279669 -0.14898798 0.31453675
0000f0 99 cb 6c bb 6e 8c 88 3e d1 d2 5b be 48 fc 8d 3e
       -0.0036132096 0.2666964 -0.21467139 0.27731538
000100 2a b0 69 bd 7e a2 0c 3e fd 90 2c be eb 68 78 be
       -0.05705277 0.13733861 -0.16852184 -0.24258773
000110 0f 1f 94 be 22 5f 85 be 31 7b 9a be ec 20 45 3e
       -0.28929946 -0.26049143 -0.30172113 0.1925084
000120 01 b4 56 3e cc d7 80 be f6 39 0b be 06 9d 7e bc
       0.20967104 -0.2516464 -0.13596329 -0.015540367
000130 92 41 8f 3e 78 ea 82 3e a0 a8 1f 3e 9b 83 8a be
       0.27979714 0.2556951 0.15591669 -0.27053532
000140 3b f9 3b be 92 7f 91 be 4c 97 11 3e 53 0c 84 be
       -0.18356793 -0.2841764 0.14217871 -0.25790653
000150 ef 70 f5 bd 6c 1e 88 3d 6a d4 9c bd f5 2a 1f 3e
       -0.11984431 0.066464275 -0.07657702 0.1554373
000160 70 aa f3 bd 21 6f 0d 3e 39 4f f3 3c 71 19 7c be
       -0.11897743 0.13811924 0.029700862 -0.2461908
000170 5c bd 76 3e 15 bd 41 3d a2 fc 27 be 8f 9c b2 3c
       0.24095672 0.047299463 -0.16404966 0.021803169
000180 17 ff 6a bd fb 25 5a bd 54 a5 87 be b2 42 f3 bd
       -0.05737218 -0.053258877 -0.26493323 -0.118779555
000190 94 66 91 3d d9 e0 9d 3e 6f ad 83 3e 1f 24 6d 3e
       0.07099643 0.30835608 0.25718257 0.2315831
0001a0 cf c7 95 be 3f 39 a0 be 88 c7 09 bd ea 29 65 3e
       -0.29254004 -0.31293675 -0.033637553 0.2237927
0001b0 28 e0 a1 3e 50 cf 20 3e 40 32 63 be fa f5 41 3e
       0.3161633 0.15704083 -0.22187138 0.18941489
0001c0 b3 da 2f be ae 37 28 be 33 a3 a5 3d 1c b4 24 3e
       -0.17173271 -0.1642749 0.080877684 0.16084331
0001d0 ad a6 8f 3e ea 51 26 3e f1 67 84 3e 64 fe 12 be
       0.2805685 0.16242185 0.2586055 -0.14354855
0001e0 49 cd 52 3e 7a b0 1e bd 98 8a 2f 3e 5d 4e aa 3d
       0.20586123 -0.03874252 0.17142713 0.08315728
0001f0 1c f0 92 3e df aa 02 be d7 08 12 3e 75 44 ea bd
       0.28698814 -0.12760495 0.14261185 -0.114388384
000200 45 fa 89 3e dd 90 81 be 5b 52 02 be 39 fe 47 bd
       0.26948753 -0.25305834 -0.12726729 -0.04882643
000210 4d a0 ea bc e0 e7 16 be 7b 09 4a 3e 27 92 d7 bd
       -0.02864089 -0.14736891 0.19730179 -0.10525923
000220 64 f0 2c be 56 7c 76 be f9 43 18 bc 4e dd 2a 3e
       -0.16888577 -0.24070868 -0.00929355 0.16685984
000230 de f5 d1 ba 6b a0 63 be a4 37 85 3e 7d 4c ce 3d
       -0.0016018709 -0.22229163 0.26019013 0.10073183
000240 c7 64 07 3d 8d a4 fa 3d 86 e4 98 be c4 3d 55 be
       0.033055093 0.12238417 -0.2986185 -0.20824343
000250 4d 4e 84 be 19 54 81 3d f6 f5 25 3e 3e ac 64 3e
       -0.2584099 0.063148685 0.16207108 0.2233133
000260 93 e5 62 3e c6 1f c3 3d 00 d9 4c bd 89 b7 99 be
       0.22157888 0.09527545 -0.050011635 -0.3002284
000270 02 50 ff 3c f4 2a a1 3e ef ed 93 be 09 58 fc bc
       0.03116608 0.31478083 -0.28892466 -0.030803697
000280 3e 52 8a be a2 6d db 3d b1 d3 8d bd b8 46 87 be
       -0.2701587 0.1071427 -0.069251426 -0.26421142
000290 e6 fe be 3c 1b 66 d8 bd 32 53 94 3e 3d 27 00 3e
       0.023314904 -0.1056635 0.28969723 0.12514968
0002a0 ab b8 23 3d be 91 4e 3e 65 6c 79 be 72 b1 38 3e
       0.039971035 0.20172784 -0.24357755 0.1803644
0002b0 a0 02 c4 bd e1 ec 95 3c ac a3 65 3e f7 98 53 be
       -0.09570813 0.01830143 0.22425717 -0.2066382
0002c0 d6 ed 77 be 05 0f 56 be 31 f9 74 be aa fa 2a 3d
       -0.24211821 -0.20904167 -0.23923184 0.041742958
0002d0 28 06 63 bd f6 65 c7 bd a0 5a 32 bd 91 0c ba bc
       -0.055425793 -0.097362444 -0.043543458 -0.02271107
0002e0 9c 65 1e 3d 8d ca 25 3e cc b1 8e 3e 85 64 29 3e
       0.03867112 0.16190548 0.27870023 0.16542251
0002f0 91 07 17 be f2 0d 4e be b4 84 95 bd 1b 5d 44 bd
       -0.1474898 -0.20122507 -0.07300702 -0.047940355
000300 37 7b 57 be ca 9b 8f bd f6 b3 59 3e 7d e9 3d bc
       -0.21043096 -0.07012136 0.21260056 -0.0115913125
000310 e5 8f 90 be 81 90 82 3d e0 50 94 3e ca 4c cf 3c
       -0.28234783 0.06375218 0.28967953 0.02530517

fc1.bias f4 [20]
000000 64 f7 2b 3e ab 24 2f bc 52 bc a1 3e 26 32 00 be
       0.16793591 -0.010689895 0.3158899 -0.1251913
000010 e7 e0 d2 bd 5d 67 93 3e f8 d6 b3 3a 7d bb 80 be
       -0.10296803 0.28789797 0.0013720682 -0.25143042
000020 86 a3 42 be 1d 55 9f 3c 88 28 aa bc dd 23 99 3c
       -0.19007692 0.019449765 -0.02077128 0.018693859
000030 65 51 8c be d0 81 65 3e d5 92 8b 3d ab a9 50 bc
       -0.2740585 0.22412801 0.06815115 -0.0127357645
000040 0d 22 d1 3d 7b 59 69 3e 91 4b 9e be a5 3a c5 3d
       0.10211573 0.2278804 -0.30917028 0.09630326

fc2.weight f4 [5, 20]
000000 a6 c8 5f be cd 49 6a bd 8e 83 f7 bd 40 3c 3f bc
       -0.21853885 -0.05719929 -0.12085639 -0.01167208
000010 53 03 90 3d f3 a2 b5 3d a3 cc 15 3e c5 ed 19 be
       0.07031884 0.08868971 0.14628844 -0.15032108
000020 6d 34 50 3e b4 9d b2 bd 46 a1 cc bd 20 d3 dc bd
       0.20332499 -0.08721486 -0.09991698 -0.107824564
000030 ff ea be 3d 65 c1 58 3e 68 41 1a be b5 df 40 3e
       0.09322166 0.21167524 -0.15064013 0.18835337
000040 ef ca ad bc df 2f 61 bd 27 e4 ef 3d 2e b2 95 bd
       -0.02121493 -0.054977294 0.117134385 -0.07309376
000050 62 83 1d 3e f9 33 ce 3c 22 57 16 3e f9 fb 73 bc
       0.1538215 0.025171267 0.14681676 -0.014891618
000060 16 09 29 3e 4a ad 96 bb b7 64 69 3d 1c 8d 06 be
       0.16507372 -0.0045982944 0.056980815 -0.13139766
000070 bc 5b 64 3e 3e ce 06 3c 0b c9 e2 bb 3d 51 4d 3c
       0.22300619 0.008227883 -0.006920939 0.012531576
000080 8f 3a 47 3d 69 b7 fb bd 20 b0 15 be 17 81 2b be
       0.04863983 -0.12290842 -0.14617968 -0.16748463
000090 b2 0b 11 bb 42 17 29 3c cd 09 13 3d c9 41 21 be
       -0.0022132215 0.0103204865 0.03589802 -0.15747751
0000a0 f9 38 cc 3d 5c c8 f9 3d 6f ff f6 bd b6 56 db bd
       0.09971804 0.12196419 -0.12060439 -0.10709898
0000b0 b6 11 60 be 40 23 ab bd 2b 74 27 3e 9f 9c 81 3c
       -0.21881756 -0.08356333 0.16352908 0.015821753
0000c0 98 5f 0b 3e fb c1 91 3d b9 2e 04 bd 16 13 54 be
       0.13610685 0.07117077 -0.03227112 -0.20710406
0000d0 76 fd f5 bd 4c 87 d6 3d be 45 fe 3d 4c 1b 5c be
       -0.120112345 0.104750246 0.12415646 -0.21494788
0000e0 59 c8 cd bd 1e 2b 41 3e 37 02 69 3d ad ab ed bd
       -0.10047979 0.18864104 0.056886878 -0.1160501
0000f0 d9 a5 28 be 73 e0 1e 3e 37 ed d4 3d bf 38 3b 3d
       -0.16469516 0.15515308 0.10396808 0.045708414
000100 14 bf 08 be 71 b5 d4 bd b9 53 2d 3e e2 1f 41 3e
       -0.1335414 -0.1038617 0.16926469 0.18859819
000110 56 da 4d bd a2 d5 13 3e 8f c7 9a bd 49 25 36 bd
       -0.05025705 0.14436963 -0.07557594 -0.04446915
000120 03 85 70 3d 0d d0 dd bd 8a cd df bd 07 e1 f1 3d
       0.0587206 -0.10830698 -0.10927875 0.11810499
000130 3b fb 4c be fb f6 3f 3e 30 45 53 be 91 48 5a bc
       -0.20017712 0.1874656 -0.20631862 -0.013322965
000140 02 fb 3c bd 03 80 d4 bd 8b a0 2c 3e e2 94 d7 3d
       -0.046137817 -0.10375979 0.16858117 0.10526444
000150 7c 53 1b 3e dd 11 29 3e fb 44 dc 3d 47 6f ff 3d
       0.15168566 0.1651072 0.107553445 0.12472396
000160 ad 05 57 3d 04 a8 12 be 50 69 34 bd 51 6b 3e 3d
       0.052495647 -0.14321905 -0.044045746 0.046489064
000170 f0 8c 4b 3e f7 2c 49 be 8d 2e f4 bd 28 3d 38 bd
       0.19877982 -0.19646059 -0.11922941 -0.0449802
000180 e1 d7 56 be 52 12 81 3d 5d 14 34 3e bb ea 28 bd
       -0.20980789 0.063023224 0.17585893 -0.04123948

fc2.bias f4 [5]
000000 fe 29 2e bd 09 8c 9a 3d b3 73 81 3c 5c aa 37 3c
       -0.042520516 0.07546241 0.01580224 0.01121005
000010 7e 16 ca 3d
       0.09867571
